…
, erasing=0.4, crop_fraction=1.0, cfg=None, tracker=botsort.yaml, save_dir=runs/classify/unified_20250914_192340
[34m[1mtrain:[0m /Users/etanheyman/Desktop/Gits/hand-sign-detection/data/hand_cls/train... found 1486 images in 3 classes âœ… 
[34m[1mval:[0m /Users/etanheyman/Desktop/Gits/hand-sign-detection/data/hand_cls/val... found 254 images in 3 classes âœ… 
[34m[1mtest:[0m None...
Overriding model.yaml nc=1000 with nc=3

                   from  n    params  module                                       arguments                     
  0                  -1  1       928  ultralytics.nn.modules.conv.Conv             [3, 32, 3, 2]                 
  1                  -1  1     18560  ultralytics.nn.modules.conv.Conv             [32, 64, 3, 2]                
  2                  -1  1     29056  ultralytics.nn.modules.block.C2f             [64, 64, 1, True]             
  3                  -1  1     73984  ultralytics.nn.modules.conv.Conv             [64, 128, 3, 2]               
  4                  -1  2    197632  ultralytics.nn.modules.block.C2f             [128, 128, 2, True]           
  5                  -1  1    295424  ultralytics.nn.modules.conv.Conv             [128, 256, 3, 2]              
  6                  -1  2    788480  ultralytics.nn.modules.block.C2f             [256, 256, 2, True]           
  7                  -1  1   1180672  ultralytics.nn.modules.conv.Conv             [256, 512, 3, 2]              
  8                  -1  1   1838080  ultralytics.nn.modules.block.C2f             [512, 512, 1, True]           
  9                  -1  1    661763  ultralytics.nn.modules.head.Classify         [512, 3]                      
YOLOv8s-cls summary: 99 layers, 5,084,579 parameters, 5,084,579 gradients, 12.6 GFLOPs
Transferred 156/158 items from pretrained weights
[34m[1mtrain: [0mScanning /Users/etanheyman/Desktop/Gits/hand-sign-detection/data/hand_cls/train... 1486 images, 0 corrupt: 100%|â–ˆâ–ˆâ–ˆâ–ˆâ–ˆâ–ˆâ–ˆâ–ˆâ–ˆâ–ˆ| 1486/1486 [00:00<?, ?it/s][34m[1mtrain: [0mScanning /Users/etanheyman/Desktop/Gits/hand-sign-detection/data/hand_cls/train... 1486 images, 0 corrupt: 100%|â–ˆâ–ˆâ–ˆâ–ˆâ–ˆâ–ˆâ–ˆâ–ˆâ–ˆâ–ˆ| 1486/1486 [00:00<?, ?it/s]
…
